src/SkinCancer/model_skin_cancer_epoch40.pt (torch_old, 17405 bytes, 10 tensors)

conv1.weight f4 [3, 3, 3, 3]
0	0xbdaffb72	-0.08592881
1	0xbe3fef8b	-0.18743722
2	0xbbc2304f	-0.005926169
3	0xbe5ea7db	-0.2174372
4	0xbe2737e2	-0.16329911
5	0xbe792ca1	-0.24333431
6	0x3e100d52	0.14067581
7	0xbe05e0a9	-0.13073982
8	0xb927e66a	-0.00016012197
9	0xbd83be99	-0.06432838
10	0xbc53ef01	-0.012935401
11	0x3d9de547	0.07709747
12	0x3e2f7f6c	0.17138451
13	0xbb952279	-0.0045512286
14	0xbd96699c	-0.07344362
15	0x3e2982ea	0.16553846
16	0xbd7dd52f	-0.061970886
17	0xbaaa35b2	-0.0012985973
18	0x3dc95211	0.09830106
19	0x3d488c85	0.048962135
20	0xbc2c3a54	-0.010511953
21	0x3e1f6840	0.15567112
22	0x3d9d37c0	0.07676649
23	0x3cca0e8e	0.024665143
24	0x3e24904b	0.16070668
25	0xbe3c39d0	-0.18381429
26	0xbd179fe6	-0.037017725
27	0xbe1ea19d	-0.15491338
28	0x3e2c1d7f	0.16808127
29	0xbe067032	-0.13128737
30	0x3d43674d	0.047705937
31	0x3dd3743e	0.10324906
32	0xbe2c94b8	-0.16853607
33	0x3e0bd1e7	0.1365429
34	0xbd102c28	-0.03519836
35	0xbe00fedd	-0.12597223
36	0xbd3d5d49	-0.04623154
37	0x3e2052f6	0.15656647
38	0xbe09c97a	-0.13455763
39	0xbdef68de	-0.11689924
40	0xbe9e160c	-0.30876195
41	0x3deadcca	0.114678934
42	0x3e2d6890	0.16934419
43	0x3e31e86e	0.17373821
44	0x3e25ce7e	0.16192052
45	0x3e07ff64	0.13281018
46	0x3d328c4b	0.043590825
47	0xbdcf58af	-0.10124337
48	0x3e378b53	0.17924242
49	0xbd17c6cb	-0.037054818
50	0xbe11e6b0	-0.14248157
51	0x3d84d566	0.06486015
52	0xbe3c23fd	-0.18373103
53	0xbdd643bb	-0.10462137
54	0x3c8aad58	0.01692836
55	0xbd1d6202	-0.038423546
56	0xbe2b463d	-0.16726013
57	0x3de56e70	0.11202705
58	0x3e10660d	0.1410143
59	0xbe25f476	-0.16206536
60	0xbe1e6299	-0.154673
61	0xbe28b832	-0.16476515
62	0x3e090916	0.13382372
63	0x3e0fb06b	0.14032142
64	0xbdab6cfa	-0.08370395
65	0x3c122b9c	0.00892153
66	0xbe27eeaa	-0.16399637
67	0x3dd67356	0.10471217
68	0x3e41e4d6	0.1893495
69	0xbe0bb312	-0.13642529
70	0xbda6dd11	-0.08147634
71	0xbddb820c	-0.10718164
72	0xbdcb6cbf	-0.09932851
73	0x3d700a6c	0.05860369
74	0xbd037333	-0.032092284
75	0xbe23dc0e	-0.16001913
76	0x3daf8bf5	0.085716166
77	0xbe3296f9	-0.17440404
78	0xbd8144be	-0.0631194
79	0xbe0b279c	-0.13589329
80	0x3b8d877b	0.004319129

conv1.bias f4 [3]
0	0x3c3e218a	0.011604676
1	0xbdb7ca1a	-0.08974095
2	0xbdde8761	-0.10865665

conv2.weight f4 [4, 3, 5, 5]
0	0x3d8822f5	0.066472925
1	0x3e1edeb9	0.1551465
2	0x3dda9d35	0.10674516
3	0x3d1e5771	0.03865761
4	0x3c1ae451	0.009453849
5	0x3c47c994	0.012194056
6	0x3e23cbca	0.15995708
7	0x3dd8496b	0.10560878
8	0x3de16834	0.11006203
9	0x3d55f2f7	0.052233662
10	0x3e0a34e4	0.13496739
11	0x3e3712a8	0.1787821
12	0xbaf38a78	-0.0018580696
13	0xbcb7272f	-0.022357551
14	0x3e153ee1	0.14574768
15	0xbce54c6e	-0.027990546
16	0xbc3461fd	-0.01100969
17	0x3dbecd94	0.09316555
18	0x3ce1cf9d	0.027564818
19	0x3d36d1f8	0.044633836
20	0x3d6b171c	0.057395086
21	0x3ded4908	0.11586195
22	0xbcb9bb37	-0.022672279
23	0x3ddc202c	0.10748324
24	0x3c00dd66	0.0078652855
25	0xbd623d9d	-0.05523454
26	0x3dd9dd7b	0.10637947
27	0x3d14d3a6	0.036334656
28	0xbd0c868f	-0.034308013
29	0xbd9f6236	-0.07782404
30	0x3d6ec5aa	0.058293976
31	0x3d00b558	0.031422943
32	0x3d161d8c	0.03664927
33	0x3e01df9f	0.12682961
34	0x3bb3b61e	0.0054843565
35	0xbd1786a1	-0.036993627
36	0x3dca6237	0.09882014
37	0xbbe014e1	-0.0068384265
38	0x3da760e5	0.08172778
39	0x3c97fdb5	0.018553594
40	0xbd2b7f1f	-0.04186928
41	0x3d9647df	0.07337927
42	0xbd1388cf	-0.036019143
43	0xbda95124	-0.082674295
44	0xbd150255	-0.036379177
45	0xbdd185ce	-0.10230599
46	0xbdaea35e	-0.085272536
47	0xbdc504d4	-0.096200615
48	0xbd082d22	-0.033246167
49	0xbd16259e	-0.03665697
50	0xbc4efb2a	-0.012633124
51	0xbd6a5f13	-0.057219576
52	0xbdf2056b	-0.1181744
53	0xbcbf43fc	-0.023347847
54	0xbd44fb9b	-0.048091512
55	0xbc325477	-0.010884396
56	0x3e0b8975	0.13626654
57	0x3dd90f50	0.10598624
58	0x3df09920	0.11747956
59	0x3e2770ba	0.16351596
60	0x3b07a175	0.00206956
61	0x3d406c7a	0.04697845
62	0xbcd776d9	-0.026301788
63	0x3d988aed	0.07448373
64	0xbd022f86	-0.031783603
65	0x3d460110	0.048340857
66	0x3dbd19bd	0.09233425
67	0x3dccb815	0.09996048
68	0x3d82760a	0.063701704
69	0x3d4813b4	0.048846915
70	0x3dd04390	0.101691365
71	0xbca10eee	-0.01966044
72	0x3d6ead52	0.05827076
73	0x3de5acb7	0.11214583
74	0xbd11bba9	-0.035579357
75	0xbd9900da	-0.074708655
76	0xbd81229f	-0.063054316
77	0xbd1e204c	-0.03860502
78	0xbd879945	-0.06621031
79	0x3dc18256	0.09448688
80	0xbdc4b7b6	-0.096053526
81	0xbd587eb8	-0.052855223
82	0x3b53400d	0.0032234222
83	0x3c4f0ad9	0.012636864
84	0x3cc574ef	0.02410361
85	0x3d37a4f4	0.044835046
86	0x3d4b7ae3	0.04967774
87	0xbd8cd066	-0.06875686
88	0x3dd1bccc	0.10241088
89	0xbd126c68	-0.035747916
90	0x3ba94d26	0.0051666675
91	0x3c5345b4	0.0128950365
92	0xbd80561b	-0.06266423
93	0x3d266ffb	0.040634137
94	0x3db4e90b	0.08833512
95	0x3d2ac486	0.041691326
96	0x3d80d8fc	0.062913865
97	0x3ca87eba	0.02056824
98	0xbdb1d29a	-0.08682747
99	0xbd0debb7	-0.034648623
100	0x3da7befc	0.08190724
101	0xbd988a60	-0.07448268
102	0xba5fda68	-0.000853932
103	0x3d3b6dab	0.045758884
104	0xbd2cda7e	-0.042200558
105	0x3d3869a0	0.045022607
106	0x3d8c76aa	0.06858571
107	0x3d9d6580	0.07685375
108	0x3b03cace	0.0020109895
109	0xbb8ff316	-0.004392992
110	0x3cc43c1b	0.023954442
111	0x3d50f47c	0.05101441
112	0x3d9cc92c	0.07655558
113	0xbdc2787e	-0.09495638
114	0x3de67e86	0.11254601
115	0x3d4666f8	0.048438042
116	0x3dd6eeab	0.10494741
117	0x3d5e42de	0.05426299
118	0xbd95b49a	-0.07309838
119	0x3debb43e	0.11508988
120	0x3b97ec93	0.004636356
121	0xbda2c5c8	-0.0794788
122	0xbd1955e9	-0.037435446
123	0xbd50dae3	-0.050989997
124	0x3db7ead8	0.0898034
125	0x3ae5eef3	0.0017542526
126	0xbd33de4b	-0.043913167
127	0x3dc53c98	0.09630698
128	0x3d943490	0.07236588
129	0x3caccca7	0.02109368
130	0x3d78d0a0	0.060745835
131	0xbdb38347	-0.087652735
132	0xbddf2e27	-0.10897475
133	0xbe04de9c	-0.12975544
134	0x3daa9d12	0.0833074
135	0xbda32234	-0.07965508
136	0x3d0c63bf	0.034274813
137	0x3dc02a22	0.09383036
138	0xbd2f6645	-0.04282214
139	0x3db5a49e	0.08869289
140	0xbc63b102	-0.013897182
141	0xbd3e8fdb	-0.04652391
142	0xbcfb1a12	-0.03065208
143	0x3d9d8de5	0.0769308
144	0xbc1fd376	-0.009755006
145	0x3d0d628e	0.034517817
146	0x3d8b00f8	0.06787294
147	0xbdd2d877	-0.10295194
148	0x3c3101ec	0.010803681
149	0x3d6c72d7	0.057726707
150	0x3cd533cf	0.02602568
151	0xbb0ceab3	-0.0021502196
152	0xbd3073a5	-0.043079037
153	0x3cb02ceb	0.021505794
154	0xbd087e31	-0.03332347
155	0x3da247cf	0.07923853
156	0xbda152aa	-0.07877095
157	0xbdb0b987	-0.086291365
158	0xbd56c6ab	-0.05243556
159	0x3bdd7689	0.0067585153
160	0x3ddf0cc1	0.108911045
161	0xbd6f986d	-0.058494974
162	0xbda40fe3	-0.08010843
163	0x3d926a71	0.07149208
164	0xbcc186e3	-0.02362389
165	0xbd521aa1	-0.051294927
166	0x3dbdc053	0.092651986
167	0xbdd905f4	-0.105968386
168	0xbda86e6b	-0.082241856
169	0x3dc9cf0e	0.09853946
170	0xbdd6c40c	-0.10486612
171	0xbdbf27aa	-0.09333737
172	0x3db63818	0.08897418
173	0xbc1b058a	-0.00946177
174	0xbc31f383	-0.01086128
175	0xbda7e270	-0.081974864
176	0x3dcb5665	0.09928588
177	0x3ba4fefe	0.0050352803
178	0xbbfaa2ac	-0.0076487865
179	0xbddecda4	-0.108790666
180	0xbd7f8bc3	-0.062389147
181	0x3b5c66e3	0.0033630661
182	0xbda96b16	-0.08272378
183	0xbcb3ec62	-0.021963302
184	0x3da75ae8	0.08171636
185	0xbd3b0eec	-0.045668527
186	0xbce4dc3e	-0.02793705
187	0x3d4cc4e6	0.049992464
188	0x3d43ce21	0.047804
189	0x3dc24e02	0.09487535
190	0x3cdd9573	0.027048802
191	0xbda0340a	-0.07822426
192	0xbdb9eaa4	-0.09077957
193	0xbdae50d9	-0.08511514
194	0x3d54fc7a	0.051998593
195	0xbdd7d77e	-0.10539149
196	0x3bcfdf03	0.0063437237
197	0xbdc31d8c	-0.0952712
198	0xbdd012f6	-0.101598665
199	0x3a1df026	0.00060248596
200	0x3cc05f4d	0.023482943
201	0xbcf9ee79	-0.03050922
202	0x3ddee565	0.10883597
203	0x3d9c296b	0.07625087
204	0x3d23906a	0.039932646
205	0xbd737b08	-0.059443504
206	0x3dbb3dc8	0.09142643
207	0xbd4267de	-0.047462337
208	0x3d19a387	0.037509467
209	0x3dcb9709	0.09940917
210	0xbd08429d	-0.033266652
211	0x3d87668d	0.06611357
212	0x3d5e21dc	0.05423151
213	0x3d0fb706	0.035086654
214	0x3e100267	0.14063416
215	0x3ddf5f33	0.1090683
216	0x3d5e6f91	0.054305617
217	0x3d8d6dea	0.0690573
218	0x3d24ecbd	0.040264834
219	0x3d8bb328	0.06821281
220	0x3cd64b84	0.026159056
221	0xbdae4865	-0.08509902
222	0xbd98d534	-0.0746254
223	0x3dfde13b	0.12396475
224	0x3cfed874	0.031109072
225	0xbddf0add	-0.10890744
226	0xbdf41202	-0.11917497
227	0xbdc6aad0	-0.09700549
228	0x3dc33e52	0.09533371
229	0xbdcfdfef	-0.10150134
230	0x3d2ba4f1	0.041905347
231	0x3d938db8	0.07204765
232	0xbde857c2	-0.113448635
233	0xbdb4eae0	-0.08833861
234	0xbc9573ce	-0.018243697
235	0xbdb4320d	-0.08798609
236	0xbb77ebfc	-0.0037829867
237	0xbd9c067d	-0.07618425
238	0xbd026f8d	-0.031844664
239	0x3d82468c	0.06361112
240	0x3c445e00	0.011985302
241	0xbcc9b689	-0.024623172
242	0x3cd0ddb9	0.02549635
243	0xbd5e7b7d	-0.054316986
244	0x3da77342	0.081762806
245	0x3d875acf	0.06609117
246	0x3dd5e79d	0.10444567
247	0xbcbaa452	-0.022783432
248	0x3c973a89	0.018460529
249	0x3d6b9b0d	0.057520915
250	0x3ddea835	0.10871927
251	0x3de52bd4	0.1119
252	0xbd957ec0	-0.07299566
253	0x3d5740a4	0.05255188
254	0xbc11efef	-0.008907302
255	0x3d5a2d6b	0.05326597

conv2.bias f4 [4]
0	0x3e032480	0.12806892
1	0xbdd85eb2	-0.10564937
2	0x3d3621a5	0.04446568
3	0x3d4d2065	0.050079722

fc1.weight f4 [24, 144]
0	0xbbc54bfb	-0.0060210205
1	0x3cd4c184	0.025971182
2	0x3c15ba6f	0.0091386875
3	0x3d2a8d3c	0.041638598
4	0x391e290f	0.0001508335
5	0xbdeaa8e8	-0.114579976
6	0xbd9e2aad	-0.077229835
7	0xbd76166c	-0.060079977
8	0xbce06d08	-0.02739574
9	0x3b898d50	0.004197754
10	0xbd43e28f	-0.047823485
11	0xbdcdcdd5	-0.10049025
12	0xbd1756de	-0.036948077
13	0xbdf9f36c	-0.12204632
14	0x3cf070db	0.029350689
15	0x3d2759a9	0.04085699
16	0x3d7cc45a	0.061710693
17	0x3cfc644c	0.030809544
18	0xbd66ea9f	-0.056376096
19	0xbd0c8eeb	-0.034315985
20	0x3ce15fdd	0.027511531
21	0xbc318708	-0.010835417
22	0x3e133685	0.14376266
23	0xbc67913f	-0.01413375
24	0xbba0f256	-0.004911701
25	0x3da9972e	0.08280788
26	0x3ce8828c	0.028382562
27	0x3da951aa	0.08267529
28	0x3d953c16	0.07286851
29	0x3d4dc876	0.050240003
30	0x3cac1dab	0.02101024
31	0xbd8ac540	-0.06775904
32	0x3cedb00b	0.029014608
33	0xbcb334f2	-0.021875832
34	0xbb79eba6	-0.0038134842
35	0x3d39f022	0.045395024
36	0x3c20d6e0	0.009816855
37	0xbd4505f0	-0.048101366
38	0x3cc5697d	0.024098152
39	0xbd33e574	-0.043919995
40	0xbd8665e2	-0.06562401
41	0xbdb0cc2b	-0.08632692
42	0xbdab640f	-0.08368694
43	0x3c912f47	0.017722739
44	0xbcb9f9df	-0.022702156
45	0xbd18afd5	-0.03727706
46	0xbdbdae2e	-0.09261738
47	0x3c14aa86	0.009073859
48	0xbd267f06	-0.040648483
49	0x3a3ca14c	0.0007195666
50	0x3c616324	0.013756547
51	0x3d1cfcc3	0.03832699
52	0xbd8ca0b0	-0.06866586
53	0x3d0b26ca	0.03397254
54	0x3d876eab	0.06612905
55	0xbc54d5e2	-0.012990447
56	0xbd898a16	-0.06715791
57	0x3d8504b7	0.0649504
58	0xbc766ca6	-0.015040552
59	0xbd71e3ca	-0.059055127
60	0x3d054686	0.03253796
61	0xbd852e11	-0.06502927
62	0x3bb4e6a0	0.0055206567
63	0x3d1da968	0.038491637
64	0xbd8dc995	-0.06923214
65	0xbd9f8adb	-0.077901565
66	0xbd78bcf6	-0.060727082
67	0x3d027dd0	0.031858265
68	0x3d2a4df8	0.041578263
69	0x3d995e04	0.07488635
70	0x3cfead58	0.031088516
71	0x3d45139e	0.04811441
72	0xbc943604	-0.018092163
73	0xbcd4e020	-0.025985777
74	0x3de09748	0.109663546
75	0x3cdea01a	0.027175952
76	0x3ca500cc	0.020141982
77	0xbd269d5e	-0.04067742
78	0x3dac0cdc	0.0840089
79	0xbd2e34cf	-0.04253083
80	0xbb8e81c2	-0.0043489644
81	0xbc5244a8	-0.012833752
82	0x3dc5eeb9	0.09664673
83	0xbd618ac8	-0.055063993
84	0x3cfef5df	0.0311231
85	0x3d244308	0.04010299
86	0x3c42c0fa	0.0118868295
87	0x3cc4a4d7	0.024004383
88	0x3ccd323f	0.025048373
89	0x3c305859	0.010763251
90	0x3d74fbd1	0.059810463
91	0xbd7e5c28	-0.062099606
92	0x3d8ddceb	0.069269024
93	0xbb88f852	-0.0041799927
94	0x3d06234a	0.032748498
95	0xbd76be5b	-0.06024013
96	0x3cb95274	0.022622325
97	0xbc2cc5ab	-0.010545175
98	0xbcc72a27	-0.024312092
99	0x3cd0f7e4	0.025508828
100	0x3d933b79	0.07189078
101	0xbd8b8000	-0.068115234
102	0xbc8a101b	-0.016853383
103	0x3d9843cd	0.07434807
104	0x3ab55694	0.0013835006
105	0x3d1ed424	0.03877653
106	0xbd696fc1	-0.056991342
107	0xbd133301	-0.035937313
108	0xbd7ead86	-0.062177204
109	0x3d57ab16	0.052653395
110	0xbd7c76a5	-0.061636586
111	0xbd0f4d51	-0.034985844
112	0xbc442bc3	-0.011973324
113	0xbdaeaf26	-0.08529501
114	0x3cfc6875	0.030811528
115	0xbaad7c9c	-0.0013235989
116	0x3a3daf71	0.00072359206
117	0x3ccb3bdc	0.024808817
118	0xbdc453a4	-0.09586266
119	0xbd0efc51	-0.034908596
120	0xbb441383	-0.0029918856
121	0xbc85c070	-0.016327113
122	0xbcd45732	-0.025920484
123	0x37cd42b0	2.4468958e-05
124	0xbda41c73	-0.08013239
125	0x3bcb6e67	0.0062082293
126	0xbd6eede7	-0.05833235
127	0x3d8c8418	0.068611324
128	0xbc785f12	-0.015159385
129	0xbcf53958	-0.02993457
130	0xbd614c7c	-0.05500458
131	0xbd7f872f	-0.06238478
132	0x3c49a320	0.012306958
133	0x3d3b6a88	0.045755893
134	0x3d1a42c1	0.037661318
135	0x3da050ae	0.078278884
136	0xbd4d1e82	-0.050077923
137	0xbcd61863	-0.026134675
138	0x3d01023b	0.031496268
139	0xbd627d63	-0.05529536
140	0xbd4c1e1c	-0.049833402
141	0xbb8764b2	-0.004131877
142	0x3b71fafd	0.0036923282
143	0x3d0fb268	0.03508225
144	0xbc31092c	-0.010805409
145	0x3d2624c6	0.040562414
146	0x3b4af71f	0.003097005
147	0xbb7a0e40	-0.0038155466
148	0xbdaa6889	-0.0832072
149	0xbe20acd9	-0.15690936
150	0xbc4215f7	-0.011846057
151	0x3d260978	0.040536374
152	0x3e060b90	0.13090348
153	0x3cd338d8	0.025783941
154	0x3cc2c43d	0.023775214
155	0x3c057b48	0.008147068
156	0xbe0a8567	-0.13527451
157	0x3cb44d88	0.022009626
158	0x3c48cf79	0.012256497
159	0x3dc35c8d	0.09539137
160	0x3b0452d7	0.0020190978
161	0x3d22f129	0.03978077
162	0xbbc42632	-0.0059859985
163	0x3d6304c1	0.055424456
164	0xbcfe6656	-0.031054657
165	0x3dc31fd4	0.09527555
166	0x3c647844	0.013944689
167	0x3c06f9c0	0.008238256
168	0x3cb96f47	0.022636069
169	0xbd9e30d2	-0.077241555
170	0x3ca92c19	0.02065091
171	0x3d51551b	0.051106554
172	0xbbcbab07	-0.0062154564
173	0x3dc0d9ea	0.09416564
174	0xbca17bfa	-0.019712437
175	0xbcdcbb83	-0.026944881
176	0xbd151a3a	-0.036401965
177	0xbdc0d08b	-0.094147764
178	0xbd320e59	-0.043470714
179	0x3d516585	0.051122207
180	0x3ccdbad9	0.02511351
181	0x3bd11844	0.0063810665
182	0x3d38bc7f	0.04510164
183	0x3d3e6ebb	0.04649232
184	0x3cdfbb24	0.027310915
185	0xbce7664c	-0.028247021
186	0x3d801182	0.06253339
187	0xbd79fbe2	-0.06103123
188	0xbda99d08	-0.082819045
189	0x3c1a76e8	0.0094277635
190	0xbce42b06	-0.027852546
191	0x3d79c48b	0.060978454
192	0xbbc788cf	-0.006089307
193	0x3d988c20	0.07448602
194	0xbd9bc366	-0.07605629
195	0x3d8d929d	0.0691273
196	0xbcab7efa	-0.02093457
197	0xbd8d41b9	-0.06897301
198	0x3d87a111	0.06622518
199	0xbca07c1b	-0.019590428
200	0xbd0bf759	-0.034171436
201	0x3d1927fb	0.037391644
202	0x3d479d63	0.04873408
203	0x3cf60cc1	0.030035378
204	0x39bd85d6	0.00036148605
205	0xbda2bac7	-0.07945781
206	0x3cfbe5f3	0.030749297
207	0x3c8260a9	0.015915232
208	0x3cb4df27	0.022079064
209	0xbc1170f0	-0.008877024
210	0x3d5094c5	0.050923128
211	0xbcd4328b	-0.025903007
212	0x3d6640a0	0.056213975
213	0xbd054882	-0.032539852
214	0x3d915eda	0.070981696
215	0xbcf0b148	-0.02938141
216	0xbd099df8	-0.033597916
217	0x3d5a93c0	0.05336356
218	0xbd2f9f1f	-0.04287636
219	0x3b28c8f4	0.0025754543
220	0x3d8b032d	0.06787715
221	0x3da01b05	0.078176536
222	0xbcee8927	-0.029118134
223	0xbc14ac0c	-0.009074222
224	0x3da84038	0.08215374
225	0x3dc86abe	0.097859845
226	0x3d92d910	0.07170308
227	0xbcc62be3	-0.024190849
228	0x3b5de864	0.003386044
229	0x3cf57775	0.029964188
230	0x3d995d75	0.07488529
231	0x3d96d620	0.0736506
232	0xbce12a12	-0.027485881
233	0xbce63421	-0.028101029
234	0x3d5bbc2b	0.053646248
235	0xbcf26c2a	-0.029592592
236	0xbd9c9408	-0.07645422
237	0xbd3f2dd1	-0.046674553
238	0xbc129e9b	-0.008948947
239	0x3d55b14d	0.05217104
240	0xbc67dd12	-0.014151828
241	0x3da3c134	0.07995835
242	0x3b41ea04	0.0029588947
243	0x3c992985	0.018696556
244	0xbcbd00e4	-0.023071714
245	0xbd436fb4	-0.04771395
246	0x3d20e387	0.039279487
247	0x3d0adc19	0.033901308
248	0x3dbe2cb7	0.092858724
249	0xbd29eed8	-0.041487545
250	0xbd4c2316	-0.049838148
251	0x3d704756	0.05866178
252	0x3d2705dc	0.040777072
253	0xbda419d4	-0.08012739
254	0xbda4e56a	-0.0805157
255	0x3a7b5618	0.0009587719

fc1.bias f4 [24]
0	0x3b387bf7	0.002815006
1	0x3cc02bad	0.023458326
2	0x3cc82fa2	0.024436776
3	0xbbc8eb60	-0.0061315745
4	0xbd14f0ab	-0.03636233
5	0x3d53ad74	0.05167909
6	0xbd1d7c7b	-0.038448792
7	0xbd5998e0	-0.05312431
8	0xbd3ccfb8	-0.046096534
9	0x3bff86c4	0.0077980477
10	0x3ce2e87b	0.027698746
11	0x3c3a2e41	0.011363567
12	0xbd8ee6af	-0.06977593
13	0x3d682b62	0.056681998
14	0x3cad50f6	0.02115677
15	0xbc8e07d1	-0.017337712
16	0xbc96ee91	-0.018424304
17	0x3bb35d4e	0.0054737693
18	0x3c9fff40	0.019530892
19	0xbd9b85c2	-0.07593872
20	0x3ba45f70	0.00501626
21	0x3cace18c	0.021103643
22	0xbd699bea	-0.057033457
23	0xbcf31297	-0.02967195

fc2.weight f4 [1, 24]
0	0xbdf06b67	-0.11739235
1	0xbdc3775a	-0.09544249
2	0x3e1ccec5	0.15313251
3	0x3d93c476	0.07215206
4	0xbe29e94c	-0.16592902
5	0xbd2390f5	-0.039933164
6	0xbdd35fe6	-0.103210256
7	0x3e3d39eb	0.18479125
8	0x3dcef338	0.10104984
9	0x3d3eb250	0.04655677
10	0xbd865a34	-0.06560174
11	0x3d9a49a4	0.07533577
12	0xbe3a95e5	-0.18221243
13	0xbdf2487e	-0.11830233
14	0xbdac5786	-0.08415131
15	0x3e152a5b	0.14566939
16	0x3e29d7e7	0.16586266
17	0x3dfc6045	0.123230495
18	0x3c3ca07b	0.011512871
19	0x3d6e461d	0.058172334
20	0xbe28c4fe	-0.16481397
21	0xbd7bdd38	-0.061490268
22	0x3e092d42	0.1339617
23	0xbd9acb37	-0.075582914

meta_fc3.weight f4 [2, 3]
0	0xbf23c57b	-0.63973206
1	0xbddcde2d	-0.10784564
2	0x3f0f0ed1	0.55881983
3	0x3ed0efed	0.4080805
4	0x3ed99080	0.42493057
5	0x3f075ac5	0.5287288

meta_fc3.bias f4 [2]
0	0x3e9bdb5f	0.30440804
1	0x3f00dfa0	0.50341225

out.weight f4 [1, 2]
0	0x3f374e30	0.7160368
1	0xbe88210c	-0.26587713
