src/BreastCancerDiagnosis/breast_cancer_diagnosis.pt (torch_old, 115703 bytes, 7 tensors)

conv1.weight f4 [6, 3, 5, 5]
0	0xb987f119	-0.00025928838
1	0xbb870245	-0.0041201436
2	0x3e987da5	0.2978336
3	0xbe5143b8	-0.20435989
4	0x3d4eba01	0.050470356
5	0x3cfd7c30	0.030943006
6	0x3de1822d	0.11011157
7	0xbc5914ac	-0.013249557
8	0x3e1ce388	0.15321171
9	0x3c2b7d39	0.010466867
10	0xbc7f5c44	-0.015585963
11	0x3e44af8c	0.19207591
12	0x3c8a06de	0.016848978
13	0xbbd87471	-0.006605678
14	0x3e21c024	0.15795952
15	0x3a230289	0.00062183343
16	0x3aaee8ab	0.0013344487
17	0x3e9737f3	0.29534873
18	0xbe4e5e6e	-0.2015321
19	0x3d9e8c24	0.077415735
20	0x3d7f68a0	0.062355638
21	0xbae4e829	-0.0017464209
22	0xbc6fcff4	-0.014636982
23	0x3dab3948	0.08360535
24	0xbbb34b54	-0.0054716263
25	0xbb46473c	-0.0030254861
26	0xbb9a86c8	-0.004715774
27	0x3cd4b77c	0.025966398
28	0x3bb0d11a	0.0053960206
29	0x3baa63ed	0.0051999004
30	0xbd9cd5fa	-0.07658
31	0x3d2550d9	0.040360305
32	0x3de8bd02	0.113641754
33	0xbddc39a9	-0.10753185
34	0x3cbc676a	0.02299853
35	0xbdbd2d52	-0.0923716
36	0x3e19da57	0.15024696
37	0xbd139b61	-0.036036853
38	0xbd16dfe5	-0.036834616
39	0x3e089bd3	0.13340692
40	0xbc3ac986	-0.011400586
41	0x3d40bb66	0.047053717
42	0xbcfbc6c0	-0.03073442
43	0x3cdb31a8	0.026757076
44	0x3c35f19d	0.011104968
45	0xbda3691b	-0.07979032
46	0x3d09a749	0.0336068
47	0x3dddee56	0.108364746
48	0xbe13c634	-0.14431077
49	0x3ca12a11	0.01967338
50	0xbd1e2743	-0.03861166
51	0x3e08f88f	0.13376068
52	0xbda3baf7	-0.07994645
53	0xba24ed50	-0.0006291466
54	0x3d74290c	0.059609458
55	0x3e381366	0.1797615
56	0xbeaa7a8a	-0.33296615
57	0x3e43613e	0.19080064
58	0x3e34099c	0.1758179
59	0xbe33a32b	-0.17542712
60	0x3d2437ea	0.040092386
61	0x3d814fcd	0.06314049
62	0x3cffacfd	0.031210417
63	0x3c1d847a	0.009614104
64	0x3c489794	0.01224317
65	0x3ce3b06e	0.02779409
66	0x3dde07f0	0.10841358
67	0xbd47c1a2	-0.048768647
68	0x3c906e54	0.017630734
69	0x3dad5fdc	0.08465549
70	0x3e3bb4c1	0.18330671
71	0xbeb86414	-0.36013854
72	0x3e5ff064	0.21869045
73	0x3e48cbde	0.19609019
74	0xbe2fdba0	-0.17173624
75	0x3c9efc6a	0.01940747
76	0xbd721fd6	-0.059112392
77	0xbe1d64fd	-0.15370555
78	0xbd33ee4b	-0.043928426
79	0x3dd85bb3	0.10564365
80	0xbea627e1	-0.324523
81	0xbec2c856	-0.3804347
82	0xbe3560bc	-0.17712682
83	0xbed36157	-0.41285202
84	0xbee938d0	-0.45551157
85	0x3cff4769	0.03116198
86	0xbd64b2ee	-0.055834703
87	0xbc0cb091	-0.008587019
88	0xbc78e3a1	-0.01519099
89	0xbdd45819	-0.10368366
90	0xbd2388f4	-0.03992553
91	0x3d87e51c	0.06635496
92	0xbdc964fa	-0.09833713
93	0xbe443e92	-0.19164494
94	0xbd0c26a2	-0.03421653
95	0xbee30d0a	-0.44345886
96	0xbece366d	-0.402759
97	0xbe4eaaa3	-0.2018228
98	0xbee1c9ea	-0.4409936
99	0xbebe0a33	-0.37117156
100	0x3d220aa4	0.03956093
101	0xbdd19d18	-0.102350414
102	0xbe067f0c	-0.13134402
103	0xbd27144c	-0.04079084
104	0xbe52901d	-0.20562787
105	0xbe04156c	-0.12898797
106	0x3bb8e7dc	0.005642874
107	0xbe55e477	-0.20887934
108	0xbe5f2676	-0.21792015
109	0xbe27d537	-0.16389929
110	0xbe6e588a	-0.23275962
111	0xbe3cc8b9	-0.18435945
112	0xbdb0cf79	-0.08633322
113	0xbe0ce39c	-0.13758701
114	0xbe458ea0	-0.19292688
115	0xbdd7873a	-0.10523839
116	0xbe07e0e8	-0.13269389
117	0xbe2343e5	-0.15943868
118	0xbd243b0a	-0.040095367
119	0xbe471db8	-0.1944493
120	0xbe8b7411	-0.2723699
121	0xbc46ee7a	-0.012141818
122	0xbe9bbecc	-0.30419004
123	0xbe9ddef1	-0.30834153
124	0x3c74188d	0.0148984315
125	0xbdc5d4cd	-0.09659729
126	0x3d244041	0.04010034
127	0xbd97d60f	-0.07413875
128	0xbcee7eac	-0.029113136
129	0xbde55944	-0.11198667
130	0x3e6793df	0.22615002
131	0x3dc0fb7b	0.09422966
132	0x3e04c843	0.12967019
133	0x3d326fa5	0.043563504
134	0x3e1a67f0	0.15078712
135	0x3e1c2af3	0.15250759
136	0x3de5adea	0.11214812
137	0x3cfa245d	0.030534917
138	0x3e17ebea	0.14836088
139	0x3c8620f0	0.016373128
140	0xbd838340	-0.06421518
141	0xbc74c9f7	-0.01494073
142	0x3db321a0	0.08746648
143	0xbce5a796	-0.028034013
144	0x3d8b6c60	0.0680778
145	0x3e29230c	0.16517276
146	0x3e0f82c2	0.14014724
147	0x3e44a4e3	0.19203524
148	0x3e7e4569	0.24831165
149	0x3df709f6	0.12062447
150	0x3cd20e99	0.025641726
151	0xbd2a6fea	-0.041610636
152	0x3d2832ef	0.0410642
153	0xbd105609	-0.0352383
154	0xbd2ad4fa	-0.041707017
155	0xbcac710c	-0.021049999
156	0xbdcb3510	-0.0992223
157	0xbe1246b8	-0.1428479
158	0xbd879187	-0.06619554
159	0x3c05c5a4	0.008164797
160	0x3d5567e4	0.05210103
161	0x3d27108a	0.040787257
162	0x3d1707b6	0.036872588
163	0xbd73bc03	-0.059505474
164	0xbd413c05	-0.04717638
165	0xbdd62ec4	-0.104581386
166	0x3d96f6d1	0.07371295
167	0xbce300ea	-0.027710397
168	0xbd5e536f	-0.054278787
169	0x3c960b9a	0.018316079
170	0xbd959a5d	-0.07304833
171	0xbd9b718c	-0.07590017
172	0xbcf680d5	-0.030090729
173	0x3cb515d2	0.022105131
174	0xbe0eddb5	-0.13951762
175	0xbd0e2f73	-0.03471322
176	0xbd500adb	-0.050791603
177	0xbd49eaa8	-0.04929605
178	0xbdf0d62a	-0.117595986
179	0xbc9d4d1e	-0.019201811
180	0xbdd5c3d1	-0.1043774
181	0xbe09ee07	-0.13469706
182	0xbdc7d842	-0.09758045
183	0xbd25e556	-0.040501915
184	0xbd9e8aa4	-0.07741287
185	0xbd3669cc	-0.04453449
186	0x3c91d91c	0.017803721
187	0xbe1a1e9d	-0.1505074
188	0x3cc7b9c8	0.02438058
189	0xbe1d8fa8	-0.15386832
190	0xbdf4e414	-0.11957565
191	0x3c830304	0.015992649
192	0xbdffea82	-0.12495901
193	0x3d8b0c4d	0.067894556
194	0x3d6a043c	0.057132944
195	0x3d8fb6ad	0.070172645
196	0x3d74f8c1	0.059807543
197	0xbc0d8854	-0.00863846
198	0x3d553f1e	0.052062146
199	0xbd7c6ab2	-0.06162519
200	0x3ca803a7	0.020509554
201	0xbe01128e	-0.12604734
202	0xbd96eef4	-0.073697954
203	0xbd9ae140	-0.07562494
204	0xbdef59e5	-0.11687068
205	0xbdafee8a	-0.085904196
206	0xbd0235d0	-0.0317896
207	0x3c9578b0	0.018246025
208	0x3ca521ac	0.020157658
209	0x3d2a2291	0.04153687
210	0xbd2805d0	-0.04102117
211	0xbd886567	-0.06659966
212	0xbcb49748	-0.022044793
213	0xbdb08e38	-0.08620876
214	0xbd80c3f3	-0.06287374
215	0xbda317c8	-0.0796352
216	0xbd8da031	-0.0691532
217	0x3d9af786	0.075667426
218	0x3d43c1a8	0.047792107
219	0x3d9ebb6c	0.07750592
220	0xbe08b7f2	-0.1335142
221	0xbde7b5e4	-0.1131399
222	0x3d5dcf5b	0.054152828
223	0x3d2518c4	0.04030682
224	0x3d8d3114	0.068941265
225	0xbee247db	-0.44195446
226	0xbf00e9fe	-0.50357044
227	0xbefad598	-0.48991084
228	0xbf01b885	-0.5067218
229	0xbebd1080	-0.3692665
230	0xbeb13ab3	-0.34615096
231	0xbeda774b	-0.42669138
232	0xbed6a290	-0.419209
233	0xbe7b49f9	-0.24539937
234	0xbec5c104	-0.38623822
235	0xbcbf49c1	-0.023350598
236	0x3e1112b7	0.14167295
237	0x3e53e42c	0.2069251
238	0x3e2d8a57	0.16947304
239	0xbb82491c	-0.0039760005
240	0xbe781677	-0.2422732
241	0xbee53670	-0.44768095
242	0xbf01c753	-0.5069477
243	0xbeba1df8	-0.3635099
244	0xbed3a780	-0.4133873
245	0xbed8cb4c	-0.42342603
246	0xbec77983	-0.38959894
247	0xbec89ed4	-0.39183676
248	0xbea47608	-0.321213
249	0xbed11e46	-0.4084341
250	0xbdd15294	-0.10220829
251	0xbd58574c	-0.052817628
252	0xbdbc899e	-0.09205936
253	0xbd12599a	-0.035729982
254	0xba820900	-0.0009920895
255	0x3d9634df	0.07334303

conv1.bias f4 [6]
0	0xc11a7914	-9.65456
1	0x3eb9a63e	0.36259645
2	0x3d0ae002	0.033905037
3	0x3e295197	0.1653503
4	0x3e247d01	0.1606331
5	0xbe4f447a	-0.20240965

conv2.weight f4 [16, 6, 5, 5]
0	0xbd3cc66c	-0.046087667
1	0x3c10cb6c	0.008837562
2	0xbdaf8f6c	-0.085722774
3	0xbd376cb3	-0.044781398
4	0xbd660c2a	-0.056163944
5	0xbd7d7925	-0.06188311
6	0x3cc9f167	0.024651242
7	0xbd09d740	-0.033652544
8	0xbd7a6940	-0.06113553
9	0xbdd9f0e6	-0.10641651
10	0x3ca33d65	0.019926736
11	0xbc67d2aa	-0.014149347
12	0xbd79fba3	-0.061030995
13	0xbda3e9c1	-0.080035694
14	0xbd99cf3b	-0.07510229
15	0xbd8e4a6c	-0.069477886
16	0xbc7d5f6f	-0.015464648
17	0xbbbe9826	-0.0058164774
18	0x3d079a39	0.033106063
19	0xbdb8b2e4	-0.09018496
20	0x3d075d1d	0.033047784
21	0x3d2a8c42	0.041637667
22	0x3d067e6c	0.03283541
23	0xbd2eae24	-0.042646542
24	0xbdecaecb	-0.115567766
25	0xbd35d368	-0.044391066
26	0xbcdd396c	-0.02700492
27	0xbcd5afe0	-0.02608484
28	0x3c03eaae	0.0080515575
29	0x3d9c0b7d	0.07619379
30	0x3d9d2958	0.07673901
31	0x3d4852c2	0.04890705
32	0x3cdef7a4	0.027217694
33	0x3c2578a2	0.010099562
34	0xbd60c3fb	-0.0548744
35	0xbd533d3e	-0.051572077
36	0x3cbb2b6a	0.02284785
37	0x3d7c2d7c	0.061566815
38	0x3abd1943	0.0014427084
39	0x3d0f9711	0.035056178
40	0xbd4a093c	-0.049325213
41	0x3d871a2e	0.0659679
42	0x3d4b2513	0.049595904
43	0xbd37b0a6	-0.0448462
44	0x3d94290a	0.0723439
45	0x3d360a41	0.044443373
46	0xbd923743	-0.071394466
47	0x3d8f1cf7	0.069879465
48	0xbd4b5684	-0.049643055
49	0x3d7cd757	0.0617288
50	0x3c51861f	0.012788325
51	0xbd940284	-0.07227042
52	0xbd163c63	-0.036678683
53	0x3d904b50	0.07045615
54	0xbd173738	-0.036917895
55	0x3d7a890f	0.061165866
56	0x3d66252a	0.056187786
57	0x3d0195cd	0.031637
58	0x3d991c2a	0.07476075
59	0xbc54a391	-0.01297845
60	0xbdae5cbb	-0.08513781
61	0x3d2eb7a7	0.042655613
62	0xbda6b4af	-0.081399314
63	0xbd868d69	-0.065699406
64	0x3d2e28fd	0.04251956
65	0xbda995b2	-0.08280505
66	0x3d95e30b	0.07318696
67	0xbd9317d2	-0.07182278
68	0xbd914b25	-0.07094411
69	0xbcad9644	-0.021189816
70	0xbbbf7ad9	-0.005843502
71	0xbd90ff7e	-0.07079981
72	0x3d5e7782	0.05431319
73	0xbd95f4a4	-0.07322052
74	0xbd87e2b7	-0.06635039
75	0x3ca93565	0.020655343
76	0x3950cb3d	0.00019912138
77	0x3c041ade	0.008063046
78	0xbd45e156	-0.0483106
79	0xbda54c1e	-0.08071159
80	0xbdc45365	-0.09586219
81	0xbcd95d66	-0.026533794
82	0xbd0cb3da	-0.034351207
83	0xbdeedc78	-0.11663145
84	0xbd5ae5f0	-0.05344194
85	0x3d175715	0.036948282
86	0x3c592b29	0.013254919
87	0xbce44a0f	-0.027867345
88	0xbdc479be	-0.09593533
89	0x3d378c9d	0.044811834
90	0xbdd29948	-0.10283142
91	0xbd94fda8	-0.072749436
92	0xbd8deba7	-0.06929713
93	0xbd8e7c38	-0.069572866
94	0xbda27ab4	-0.0793356
95	0xbddae50a	-0.10688217
96	0xbd3e9d68	-0.046536833
97	0xbd12f4a9	-0.035877857
98	0xbdb3df39	-0.08782811
99	0x3d584eab	0.0528094
100	0xbd95e5c6	-0.073192164
101	0xbd1bdda0	-0.038053155
102	0xbda4e261	-0.08050991
103	0x3c33a1e7	0.0109638935
104	0xbbab5f87	-0.0052298936
105	0x3cdc6081	0.026901485
106	0xbd4b3ddc	-0.04961954
107	0xbd62c05c	-0.05535923
108	0x3953b2dc	0.00020189158
109	0xbd75c8d0	-0.060005963
110	0x3d97b557	0.07407635
111	0xbcc98037	-0.02459727
112	0xbb08d924	-0.002088138
113	0x3d865837	0.065597944
114	0x3d867484	0.06565192
115	0x3d93fe8f	0.072262876
116	0x3c42fe37	0.01190143
117	0xbc8da30e	-0.017289665
118	0xbda35e7c	-0.07977006
119	0xbd4d703e	-0.05015587
120	0xbd9b5b46	-0.075857684
121	0xbcfd9857	-0.03095643
122	0x3c8f50a1	0.017494502
123	0x3d90dae4	0.07073
124	0x3cf9999d	0.030468756
125	0x3c718ae4	0.014742587
126	0xbbc65868	-0.0060530193
127	0x3c628c03	0.013827327
128	0xbd5b39ad	-0.0535218
129	0xbd94949b	-0.07254907
130	0x3da74d9a	0.08169098
131	0xbd1631da	-0.036668636
132	0xbcc26756	-0.023730915
133	0x3da3f174	0.08005038
134	0x3de90bff	0.11379241
135	0xbc0e3461	-0.00867948
136	0xbd8cfc60	-0.06884074
137	0xbd21c741	-0.039496664
138	0x3d3a8b0a	0.045542754
139	0x3df09d33	0.11748733
140	0xbd123c18	-0.03570184
141	0xbd3f37c3	-0.046684038
142	0x3dcf694a	0.10127504
143	0xbda3d06e	-0.07998739
144	0xbc0c6622	-0.008569272
145	0xbde698bf	-0.11259603
146	0xbd87d080	-0.06631565
147	0x3a6c77da	0.0009020545
148	0xbd18cb41	-0.037303213
149	0x3d12726b	0.03575365
150	0xbdaa165b	-0.08305045
151	0xbc274a6a	-0.010210613
152	0xbd22e1d1	-0.039766137
153	0x3cf20065	0.029541204
154	0xbde0c55f	-0.109751455
155	0xbd410725	-0.047125954
156	0xbd8a20c0	-0.06744528
157	0xbda464a6	-0.0802701
158	0xbd4538bc	-0.04814981
159	0xbaec64a1	-0.0018035361
160	0x3c47cfb2	0.0121955145
161	0xbd3c7ad4	-0.046015576
162	0x3d5dc37c	0.054141507
163	0xbd3ea180	-0.046540737
164	0xbc82991a	-0.015942145
165	0x3d0acae0	0.033884883
166	0xbda6c86b	-0.081436954
167	0xb9c5dbf6	-0.00037738652
168	0x3d0589de	0.032602184
169	0xbdbad423	-0.09122493
170	0xbd3b0e98	-0.045668215
171	0x3d6b0158	0.05737433
172	0x3d1d6bd7	0.038432922
173	0xbcd22006	-0.025650036
174	0x3d526a6a	0.051371016
175	0xbda95e9c	-0.082699984
176	0x3d3d01ca	0.046144284
177	0xbdd11afa	-0.102102235
178	0xbd8a0526	-0.06739263
179	0xbd5080d6	-0.050904118
180	0xbd480021	-0.048828248
181	0xbd7ec900	-0.062203407
182	0x3c8d9ec7	0.017287625
183	0x3d6a5119	0.057206247
184	0x3d4e30bd	0.05033945
185	0xbda61f67	-0.08111458
186	0xbcd06509	-0.025438802
187	0x3cc525b6	0.024065834
188	0x3ca9318c	0.020653509
189	0xbdaba0db	-0.0838029
190	0xbc4552ac	-0.012043636
191	0xbd374a89	-0.044748817
192	0x3ae6b418	0.001760128
193	0x3b388ae2	0.0028158952
194	0x3c201f32	0.009773063
195	0xbd3c9fcc	-0.04605083
196	0xbce34502	-0.027742866
197	0x3d3af06b	0.045639437
198	0xbdbcc886	-0.09217934
199	0x3c2c952a	0.01053361
200	0x3d7cc15d	0.061707843
201	0x3d25249f	0.040318128
202	0xbd5ae112	-0.0534373
203	0xbc5dcdf9	-0.013537877
204	0x3d25f65a	0.040518142
205	0xbb994d41	-0.004678399
206	0x3d3f2155	0.046662647
207	0x3d3ede35	0.046598632
208	0xbc9d3418	-0.01918988
209	0xbca7dea7	-0.020491911
210	0xbd9b5250	-0.07584059
211	0xba8349f3	-0.0010016545
212	0xbd2ee188	-0.042695552
213	0xbd8384d2	-0.06421818
214	0x3d09fb58	0.033686966
215	0xbd04bdb7	-0.03240749
216	0x3d80a14c	0.06280765
217	0x3d05d339	0.03267214
218	0xbbb6bd2b	-0.00557675
219	0x3d98468d	0.074353315
220	0xbd63b92e	-0.055596523
221	0x3ccf9fe7	0.025344802
222	0x3d8462bb	0.06464144
223	0xbcf78c3e	-0.03021824
224	0x3d153f0f	0.03643709
225	0xbd0bc61c	-0.03412448
226	0xbd71d403	-0.05904008
227	0xbc992a75	-0.018697003
228	0x3c851873	0.01624701
229	0xbcff274b	-0.031146666
230	0x3d82b533	0.06382217
231	0xbdb81384	-0.08988097
232	0xbd733be6	-0.059383295
233	0xbd843d1f	-0.064569704
234	0x3d233c8e	0.03985267
235	0x3c115382	0.0088700075
236	0xbdb5d13d	-0.088778
237	0xbd565744	-0.052329317
238	0xbc038183	-0.0080264835
239	0xbd9e4f88	-0.07730013
240	0xbd32b747	-0.04363182
241	0x3d5fbb64	0.05462207
242	0xbd962024	-0.07330349
243	0xbba41b2c	-0.005008122
244	0xbd7b6bf1	-0.061382238
245	0xbba351b3	-0.0049841045
246	0xbdb05bf2	-0.08611287
247	0xbc6197fe	-0.013769148
248	0x3caa345a	0.020776916
249	0xbd2e79d2	-0.042596646
250	0x3d2801db	0.041017395
251	0xbc81be2a	-0.015837748
252	0xbd6e3bd5	-0.05816253
253	0x3d8007d9	0.06251497
254	0x3be0c894	0.0068598483
255	0xba577350	-0.0008218782

conv2.bias f4 [16]
0	0xbdb859b7	-0.09001487
1	0xbdd4f9aa	-0.10399182
2	0x3dc2da85	0.095143355
3	0xbe260a9f	-0.16214989
4	0x3eb6b28f	0.35683104
5	0x3e56415f	0.20923375
6	0xbe00e7ab	-0.12588374
7	0x3d8a0d9d	0.06740878
8	0xbd08a7e3	-0.033363234
9	0xbedc19ec	-0.42988527
10	0xc1063b0b	-8.389415
11	0xbd98e06a	-0.074646786
12	0xbdd8a7f5	-0.1057891
13	0x3d3cbcef	0.04607862
14	0xbd61f033	-0.055160712
15	0x3e8c01fc	0.27345264

fc1.weight f4 [64, 400]
0	0x3b1d1bda	0.00239729
1	0x3d1a4fc8	0.03767374
2	0xbd2ecb9e	-0.042674653
3	0x3d0348d9	0.032051895
4	0x38e11baa	0.00010733989
5	0xbc111f9e	-0.008857636
6	0xbbeb2f11	-0.0071772416
7	0xbd170889	-0.036873374
8	0xbb10fb05	-0.0022122276
9	0x3c9b4627	0.01895435
10	0x3cfe287f	0.03102517
11	0xbd385a3d	-0.045007933
12	0x3d0eb3b5	0.03483935
13	0xbb9a292a	-0.004704614
14	0xbca32b8d	-0.019918228
15	0x3c8467bd	0.016162748
16	0xbd21397c	-0.039361462
17	0x3b014506	0.001972498
18	0xba001d9b	-0.0004887224
19	0x3c826f46	0.0159222
20	0xbcac6525	-0.021044323
21	0x3d1b1b26	0.037867688
22	0x3ce5d3f4	0.028055169
23	0xbbd69b6b	-0.006549289
24	0x3cb632d4	0.022241034
25	0xbd35b764	-0.044364348
26	0xbcb27cf3	-0.021788096
27	0xbcf7879a	-0.030216027
28	0x3ccd5940	0.025066972
29	0xbcb8dfe3	-0.022567695
30	0xbd5337f4	-0.051567033
31	0xbc3641f2	-0.011124121
32	0x3ca88e9f	0.02057582
33	0xbd37aeed	-0.044844557
34	0xbd1f138b	-0.038836997
35	0xbc86de5c	-0.016463451
36	0xbb86a4d4	-0.0041090045
37	0xbd3dc430	-0.046329677
38	0xbd26c2e9	-0.040713225
39	0x3c925208	0.017861381
40	0xbd0456a8	-0.032309204
41	0xbd673fd0	-0.05645734
42	0xbd3d5e8c	-0.046232745
43	0xbc0a9014	-0.008457202
44	0xbb9ddc93	-0.0048175543
45	0x3d1dc6b0	0.03851956
46	0x3cd1dd1a	0.025618125
47	0x3cda11fd	0.026619906
48	0x3c11cb62	0.008898588
49	0xbd2b2aea	-0.041788973
50	0x3e4e1c45	0.20127971
51	0x3e64e2fe	0.22352216
52	0x3e1ca427	0.15296994
53	0x3e3a5b01	0.18198778
54	0x3e120087	0.14258014
55	0x3e45b7b7	0.19308363
56	0x3e32940f	0.17439292
57	0x3e239b1d	0.1597714
58	0x3e022bfd	0.12712093
59	0x3e32c514	0.17457992
60	0x3e56c365	0.20972975
61	0x3e847d45	0.25876823
62	0x3e4a3181	0.19745447
63	0x3e6843e0	0.22682142
64	0x3e2202ab	0.1582133
65	0x3e38d399	0.18049468
66	0x3e85d287	0.26137182
67	0x3e8386bd	0.25688735
68	0x3e561a98	0.20908582
69	0x3e877b70	0.26461363
70	0x3e4c0d74	0.19927007
71	0x3e10c406	0.14137277
72	0x3e324b70	0.1741159
73	0x3e5cd23e	0.21564576
74	0x3e8c018a	0.27344924
75	0xbcffe930	-0.031239122
76	0x3d55d9aa	0.052209534
77	0xbd228d66	-0.03968563
78	0x3ca58dc5	0.020209203
79	0x3d141d46	0.03616073
80	0x3d083774	0.03325601
81	0xbcbbab70	-0.022908896
82	0x3d103d8c	0.035214946
83	0xbc357fcd	-0.011077833
84	0x3d4bcde4	0.0497569
85	0xb9dc1b89	-0.00041982185
86	0xbd0063f2	-0.031345315
87	0xbc488c06	-0.012240415
88	0xbac58a34	-0.0015071095
89	0xbc3c4ecb	-0.011493395
90	0xbd034804	-0.0320511
91	0x3d2756b8	0.040854186
92	0xbc62fb55	-0.013853868
93	0xbc1dc340	-0.009629071
94	0xbd287e2f	-0.041135963
95	0x3cf74c60	0.030187786
96	0x3d2b2ff8	0.041793793
97	0x3d1908db	0.03736196
98	0xbd3c3baf	-0.045955356
99	0x3bd7b2b6	0.0065825833
100	0x3e24ed8c	0.16106242
101	0x3e1e58aa	0.1546351
102	0x3e125678	0.14290798
103	0x3df234f5	0.11826507
104	0x3e32cd37	0.17461096
105	0x3e4fe42c	0.20301884
106	0x3e146b85	0.1449414
107	0x3e0cd7d1	0.13754202
108	0x3e3bcbd1	0.18339469
109	0x3e20ab3a	0.15690318
110	0x3e5118f9	0.20419683
111	0x3e59d8d5	0.21274121
112	0x3e4c73ec	0.19966096
113	0x3e40dacc	0.18833464
114	0x3e6c8567	0.23097764
115	0x3e6e7943	0.23288445
116	0x3e732d68	0.2374779
117	0x3e49967d	0.19686313
118	0x3e44ba6e	0.19211742
119	0x3e623dd1	0.22093894
120	0x3e1b0c94	0.15141517
121	0x3e37fb2d	0.1796691
122	0x3e48794e	0.19577524
123	0x3e3d8800	0.18508911
124	0x3e2de82f	0.16983102
125	0x3e00c702	0.12575915
126	0x3e4c2cdd	0.19938989
127	0x3e3a12db	0.18171255
128	0x3e16fc93	0.14744787
129	0x3d78ffbd	0.060790766
130	0x3e269b20	0.16270113
131	0x3e51fbfd	0.20506282
132	0x3e299339	0.16560067
133	0x3e42e9b9	0.1903447
134	0x3e3fbf8d	0.18725415
135	0x3e6cf60c	0.23140734
136	0x3e79d0c1	0.2439604
137	0x3e2c68ad	0.16836806
138	0x3e558ca6	0.20854434
139	0x3e4e453f	0.20143603
140	0x3e2a35f5	0.16622145
141	0x3e4f0009	0.20214857
142	0x3e87593c	0.26435268
143	0x3e908fdb	0.28234753
144	0x3e8acafd	0.27107993
145	0x3e1af72c	0.15133351
146	0x3e1a461e	0.1506581
147	0x3e3675b9	0.17818345
148	0x3e7febbb	0.24992268
149	0x3e4d12b8	0.20026672
150	0x3d87f3dc	0.06638309
151	0x3ce12895	0.027485171
152	0x3d531c80	0.05154085
153	0x3d05aad4	0.032633618
154	0x3d5aabbe	0.053386442
155	0x3d5796a5	0.0526339
156	0x3d8a62f9	0.06757159
157	0x3d94818f	0.07251274
158	0x3c689c3b	0.0141974045
159	0x3b2078d7	0.0024486089
160	0x3cc773b9	0.024347173
161	0x3d79179f	0.060813542
162	0x3d8339e3	0.064075254
163	0x3da2fb42	0.0795808
164	0x3da4d8ba	0.0804915
165	0x3dcfc612	0.10145201
166	0x3db5e441	0.088814266
167	0x3cf008a0	0.029300988
168	0x3da07e93	0.07836642
169	0x3cd79058	0.026313946
170	0x3d83e338	0.06439823
171	0x3d04530c	0.032305762
172	0xbb0bec0b	-0.002135041
173	0x3da5c482	0.080941215
174	0x3d8d91ae	0.06912552
175	0x3e5e7869	0.2172562
176	0x3e33942e	0.17536995
177	0x3e30d13f	0.17267321
178	0x3e22d3ce	0.1590111
179	0x3e0a4326	0.13502178
180	0x3e32fdd0	0.17479634
181	0x3e4380f1	0.19092156
182	0x3e2572b5	0.16157039
183	0x3e4c2057	0.19934212
184	0x3e1e98cf	0.1548798
185	0x3e2c62ac	0.16834515
186	0x3e16fbd6	0.14744505
187	0x3e61de23	0.22057395
188	0x3e2d35e4	0.16915089
189	0x3e2cf931	0.16891934
190	0x3e100fd5	0.1406854
191	0x3e549959	0.20761622
192	0x3e66f830	0.22555614
193	0x3e463173	0.19354801
194	0x3e268dae	0.16264984
195	0x3e1b8708	0.15188229
196	0x3e135e2f	0.14391397
197	0x3e21fa5c	0.15818161
198	0x3df82fa0	0.12118459
199	0x3e36249c	0.17787403
200	0x3d8791e9	0.06619627
201	0x3d2c845e	0.042118423
202	0x3cea467a	0.028598059
203	0x3d632fa6	0.055465363
204	0x3bff23be	0.007786243
205	0xbadbae89	-0.001676039
206	0xbcb11d07	-0.021620287
207	0x3cfee0d4	0.031113066
208	0x3bed3a80	0.0072396398
209	0x3cfe9bef	0.031080214
210	0x3d00c521	0.031437997
211	0xbcf6bfe7	-0.030120803
212	0xbc2e85db	-0.010652031
213	0x3c08b062	0.008342834
214	0x3d4a1013	0.049331736
215	0xbd08a52b	-0.03336064
216	0x3d4006bf	0.046881434
217	0x3cdd2f92	0.027000222
218	0x3d460cdf	0.04835212
219	0x3d40162a	0.046896137
220	0x3ca0cc89	0.01962878
221	0xbce3fbc2	-0.027830008
222	0xbcaa831a	-0.020814467
223	0x3d38743d	0.04503273
224	0x3d109dd2	0.03530676
225	0xbb9339fe	-0.004492997
226	0xbd357811	-0.044303957
227	0x3c842000	0.01612854
228	0x3d2eea10	0.04270369
229	0x3ca25073	0.019813752
230	0xbcbeca61	-0.023289861
231	0xbc3510b1	-0.011051343
232	0x3cf743bd	0.030183667
233	0xbc581649	-0.013188907
234	0xbc9130da	-0.01772349
235	0x3c0c929b	0.008579875
236	0xba992c43	-0.0011686165
237	0xbcd293f9	-0.025705324
238	0xbc0f52ab	-0.008747737
239	0xbc73391a	-0.014845157
240	0x3cf9fc23	0.030515736
241	0x3d38a92a	0.045083202
242	0x3d2a60aa	0.041596092
243	0x3d3b8074	0.0457768
244	0xbd09d443	-0.033649694
245	0x3c0d3f99	0.00862112
246	0xbb0c3999	-0.0021396636
247	0x3d11f6eb	0.03563587
248	0xbcf5cf49	-0.030006068
249	0xbd3dd8d2	-0.046349354
250	0x3b3c9fec	0.0028781844
251	0xbdc2b8c6	-0.09507899
252	0xbd7b6e0b	-0.061384242
253	0x3b608d98	0.0034264084
254	0x3d87940a	0.06620033
255	0xbc93a120	-0.018021166

fc1.bias f4 [64]
0	0x3ec23b95	0.37936082
1	0x3eddeee9	0.43346336
2	0xbe5f1be8	-0.21787989
3	0xbd2f2d01	-0.04276753
4	0xbcc8cd43	-0.024511939
5	0xbdddc373	-0.108282946
6	0xbd7f2c3e	-0.062298052
7	0x3ee468b6	0.44611138
8	0xbd570e2d	-0.052503753
9	0x3e5eeb1d	0.21769376
10	0x3e887046	0.26648158
11	0xbe7eea68	-0.24894106
12	0x3e6b38f9	0.22970952
13	0x3ee18006	0.44042987
14	0x3ee039ea	0.43794185
15	0x3eabe326	0.33571738
16	0xbc7b89f4	-0.015352715
17	0xbec3002b	-0.38086066
18	0xbd011b87	-0.031520393
19	0xbc2b94ae	-0.01047246
20	0xbf29459d	-0.66121846
21	0xbd081f4d	-0.033232976
22	0x3e8cb284	0.27479947
23	0xbe62de86	-0.22155198
24	0xbdde5646	-0.10856299
25	0x3e69614d	0.22791024
26	0xbd210caf	-0.039318737
27	0x3ea7d834	0.32782137
28	0xbd106362	-0.03525103
29	0x3ea0a567	0.31376192
30	0x3ea4c8c4	0.32184422
31	0xbd3555eb	-0.04427139
32	0xbdb0f73f	-0.086409084
33	0xbd13ea3d	-0.03611206
34	0xbd82e450	-0.063912034
35	0x3e821eb9	0.25414065
36	0x3eb58c9c	0.3545884
37	0xbd3b6790	-0.04575306
38	0xbbc193d4	-0.005907515
39	0x3ea53449	0.32266453
40	0xbd24fe78	-0.040281743
41	0x3e350dfb	0.17681114
42	0xbd6646ab	-0.056219738
43	0xbce54889	-0.027988689
44	0xbd7e3a0b	-0.062067073
45	0x3ee53628	0.4476788
46	0xbd5f0874	-0.05445142
47	0xbd4a6a33	-0.049417686
48	0x3ea8e6dd	0.32988635
49	0xbca175a4	-0.019709416
50	0xbdb5d4db	-0.088784896
51	0xbd06066a	-0.03272096
52	0xbd9e6941	-0.07734919
53	0xbefd80e7	-0.49512407
54	0xbe8c3891	-0.27386907
55	0x3e58fea7	0.21190892
56	0xbd1a9548	-0.037740022
57	0xbeac24cf	-0.33621833
58	0xc0f3cda0	-7.6188507
59	0x3ea0c087	0.31396887
60	0x3e8eca29	0.2788861
61	0xbd39e88f	-0.0453878
62	0xbbea3869	-0.007147838
63	0xbc737ab6	-0.0148608

fc2.weight f4 [1, 64]
0	0xbef2ad8e	-0.47398037
1	0xbebefe06	-0.3730318
2	0xbcc685d8	-0.024233744
3	0x3b2f5359	0.002675256
4	0x3bc4b754	0.0060032997
5	0x3c9879cc	0.018612765
6	0x3c83f4b6	0.016107898
7	0xbebcacc4	-0.3685056
8	0xbcbc3188	-0.022972837
9	0xbe211fd9	-0.15734805
10	0xbecf8989	-0.40534618
11	0x3cdbcc2e	0.026830759
12	0xbe544b24	-0.20731789
13	0xbef19070	-0.4718051
14	0xbece525f	-0.4029722
15	0xbed8d5a1	-0.42350486
16	0x3d9333c9	0.071876116
17	0xbb4817c7	-0.003053175
18	0x3d83d9f6	0.06438057
19	0x3dc62306	0.09674649
20	0x3cb5dcb4	0.022199966
21	0x3cf1152e	0.029429045
22	0xbea954e2	-0.33072573
23	0xbb63ddc3	-0.0034769631
24	0x3c990902	0.018681053
25	0xbe8abbe4	-0.27096474
26	0x3d2f7936	0.042840205
27	0xbe3de56a	-0.18544546
28	0x3da659e2	0.081226125
29	0xbe8c54c0	-0.2740841
30	0xbe5a7460	-0.21333456
31	0xbb825377	-0.003977235
32	0xbdeebcfe	-0.11657141
33	0x3db0e77b	0.086379014
34	0x3d4c9185	0.049943466
35	0xbe1efa2c	-0.1552512
36	0xbe987ace	-0.29781193
37	0x3d48bcbf	0.049008127
38	0x3d5a8d04	0.05335714
39	0xbebe3f17	-0.3715751
40	0x3d6d436d	0.05792563
41	0xbe158b31	-0.14603879
42	0x3c3189ca	0.010836074
43	0xbcbeb214	-0.023278274
44	0x3d9ba017	0.07598894
45	0xbec55c89	-0.3854716
46	0xbcc6f7ce	-0.024288084
47	0x3dce6f79	0.100798555
48	0xbe2045df	-0.15651654
49	0x3cc6239d	0.024186904
50	0x3d902e02	0.07040025
51	0x3bc2a58d	0.0059401453
52	0x3d00298f	0.031289633
53	0x3d79b74d	0.060965825
54	0xbc6e0eac	-0.014529865
55	0xbea17869	-0.31537178
56	0xbb71fe6a	-0.0036925324
57	0x3b05eeae	0.0020436454
58	0xbd36d412	-0.04463584
59	0xbec4212f	-0.38306567
60	0xbe8f0440	-0.2793293
61	0x3d192f21	0.03739846
62	0xbb112497	-0.0022147053
63	0x3c1d474d	0.009599519
