src/BreastCancerPrognosis/breast_cancer_prognosis.pt (torch_old, 1738 bytes, 5 tensors)

layer_1.weight f4 [12, 9]
0	0xbd65ff83	-0.056151878
1	0xbe9b52e3	-0.30336675
2	0x3d3ecbaa	0.046580948
3	0x3e7cbe62	0.24682
4	0x3df3e532	0.1190895
5	0xbe614d3a	-0.22002116
6	0x3e057339	0.13032235
7	0x3e119ef0	0.14220786
8	0x3dcf7c61	0.10131145
9	0x3e1ebbf6	0.15501389
10	0x3e14026a	0.14454046
11	0xbd35c4c0	-0.04437709
12	0xbe919feb	-0.2844232
13	0x3d6e98c0	0.058251143
14	0xbd92be74	-0.07165232
15	0x3d9f63cc	0.077827066
16	0xbe974ac2	-0.29549223
17	0xbdb21c96	-0.086968586
18	0x3efa0c8e	0.48837703
19	0x3eb9cf82	0.36291128
20	0x3f0c28a7	0.5474953
21	0x3ef49bee	0.47775215
22	0x3ed8ba82	0.42329794
23	0x3e8561ba	0.26051122
24	0x3ef2cda0	0.47422504
25	0x3e32beff	0.17455672
26	0x3f0c1c05	0.54730254
27	0x3f0f10e6	0.5588516
28	0x3f0c2a93	0.54752463
29	0x3d5567f4	0.05210109
30	0x3dbc03ca	0.0918041
31	0x3e718e5c	0.23589462
32	0x3f076081	0.5288163
33	0x3eaf8bf3	0.3428646
34	0x3e37227b	0.17884247
35	0x3ee4951a	0.44645005
36	0x3cd21889	0.025646465
37	0xbe0a29bc	-0.13492483
38	0xbd9d74e4	-0.07688311
39	0x3e4416ac	0.19149274
40	0xbe648788	-0.22317326
41	0xbc2dd5ca	-0.010610053
42	0x3e5265d0	0.20546651
43	0xbd3c9978	-0.046044797
44	0xbe8aeed3	-0.27135333
45	0xbb673812	-0.0035281223
46	0xbe597578	-0.21236217
47	0xbe5b8f90	-0.21441483
48	0x3e2d33cf	0.16914295
49	0x3d9463a8	0.072455704
50	0xbeaa0644	-0.33207905
51	0x3c769c2f	0.0150518855
52	0x3e037c43	0.12840371
53	0xbe077e6b	-0.13231818
54	0x3f4dd6e6	0.80406034
55	0x3d0937ef	0.033500608
56	0x3f0e3fe5	0.55566245
57	0x3e609e0d	0.21935292
58	0x3effaf0c	0.49938238
59	0x3e81621f	0.25270173
60	0x3f09d729	0.53843933
61	0x3ea97b54	0.33101904
62	0x3e735cfa	0.23765936
63	0xbbd470c0	-0.0064831674
64	0xbe8d50bf	-0.27600667
65	0x3d5737b8	0.052543372
66	0xbe392256	-0.18079504
67	0xbe67762e	-0.22603676
68	0xbcc1d270	-0.023659915
69	0x3d8c733c	0.06857917
70	0x3e4dfcf2	0.20116022
71	0xbe81c313	-0.25344142
72	0xbdec2062	-0.11529614
73	0xbedab1b7	-0.4271371
74	0xbe5a299c	-0.21304935
75	0x3e6ed924	0.2332502
76	0x3f057d88	0.5214467
77	0xbe295044	-0.16534525
78	0xbe1a3b87	-0.1506177
79	0x3d737673	0.059439134
80	0xbe4d70c7	-0.20062552
81	0xbe3c7947	-0.18405639
82	0xbe321370	-0.17390227
83	0x3d7a0796	0.06104239
84	0x3ca0e46c	0.01964017
85	0xbe3eaebd	-0.18621345
86	0xbecb7c82	-0.3974343
87	0xbdb0d0a9	-0.08633549
88	0xbe9da3a0	-0.30788898
89	0x3dcdb577	0.10044377
90	0x3eb0c67b	0.3452643
91	0x3e39b1d0	0.18134236
92	0x3e2429a1	0.16031505
93	0x3ef25e74	0.47337687
94	0x3cd7831f	0.02630764
95	0x3f31d387	0.6946339
96	0x3e01c6df	0.1267352
97	0x3e1c3a0b	0.15256517
98	0x3f0e2f6f	0.5554113
99	0x3e35bc38	0.17747581
100	0x3c1c561d	0.009542015
101	0x3f005628	0.50131464
102	0x3f0b894f	0.5450639
103	0x3edd6f17	0.43248817
104	0x3e3b16bf	0.18270396
105	0x3e1230ef	0.14276479
106	0x3eff388f	0.49847838
107	0x3f20f676	0.6287607

layer_1.bias f4 [12]
0	0xbe125f59	-0.14294185
1	0xbe9ebbc0	-0.31002617
2	0xbf203fd3	-0.6259739
3	0xbed26eb8	-0.41100097
4	0xbeac32b8	-0.33632445
5	0x3ed1cc08	0.40975976
6	0xbf25a259	-0.6470085
7	0xbe9df504	-0.30850995
8	0x3ed84c65	0.42245784
9	0x3c19ba49	0.009382793
10	0xbe976f98	-0.29577327
11	0xbe9509eb	-0.2910913

layer_2.weight f4 [4, 12]
0	0xbe4072ce	-0.18793795
1	0xbd78d6c4	-0.06075169
2	0x3de5a734	0.11213532
3	0xbdfdefb6	-0.12399237
4	0x3e304046	0.17212018
5	0xbdfc5040	-0.12319994
6	0x3db405d0	0.08790171
7	0x3e22c904	0.15896994
8	0x3e5055b2	0.2034519
9	0xbe375e50	-0.17907071
10	0xbe826310	-0.25466204
11	0x3e0505de	0.1299052
12	0x3ca10941	0.019657733
13	0x3e662e20	0.22478533
14	0x3e655a1f	0.2239766
15	0x3f00051d	0.500078
16	0xbe320c6b	-0.1738755
17	0xbea243aa	-0.3169225
18	0x3edd4877	0.4321935
19	0xbe84306c	-0.25818193
20	0xbf0c3d81	-0.5478135
21	0x3df49728	0.11942893
22	0x3f2d0f30	0.676013
23	0x3f1474b9	0.57990605
24	0xbe29e27b	-0.16590302
25	0x3e737c70	0.23777938
26	0x3f12fc74	0.5741646
27	0x3ed6a047	0.41919157
28	0x3daead55	0.08529154
29	0xbec07572	-0.37589604
30	0x3ed2a18d	0.41138878
31	0x3dc1384c	0.09434566
32	0xbe53f42b	-0.20698611
33	0xbd8919fd	-0.0669441
34	0x3ef3ccd3	0.47617206
35	0x3e48105e	0.19537494
36	0xbaa82f29	-0.0012831438
37	0xbe91469a	-0.28374177
38	0xbd935b4a	-0.071951464
39	0x3d9adbd8	0.07561463
40	0x3e8d04c2	0.27542692
41	0xbe6fad5c	-0.23405975
42	0x3c707887	0.014677173
43	0xbcc58810	-0.024112731
44	0x3de79ef1	0.113096125
45	0xbe0297b4	-0.12753183
46	0x3e5b01cb	0.21387403
47	0xbdc41cac	-0.09575781

layer_2.bias f4 [4]
0	0xbe7e75e8	-0.24849665
1	0xbc950c7d	-0.018194431
2	0x3d378569	0.044804964
3	0xbe8b0eb7	-0.27159664

layer_3.weight f4 [1, 4]
0	0xbe94674c	-0.2898506
1	0x3f3b2242	0.7309915
2	0x3f0755be	0.5286521
3	0xbc8547d1	-0.016269596
